regression/obs/obs_power_1024_model_selection.npz (npz, 25588 bytes, 3 tensors)

y_true f8 [1024]
0.0 0.005524271728019903 0.009290680585958758 0.012592616388557132 0.015625 0.018471515800843278 0.021178171959605738 0.023773797684491716
0.026278012976678578 0.02870495792324037 0.031065262842462915 0.03336718324433169 0.0356172977649184 0.03782095987048258 0.03998260249971229 0.04210595062067393
0.04419417382415922 0.046249998560065245 0.048275792435323074 0.05027362869259754 0.05224533632628297 0.05419253959241402 0.05611668955454465 0.058019089559400834
0.059900916023088044 0.06176323555016366 0.0636070191530868 0.06543315415561637 0.06724245422904454 0.06903566791024844 0.07081348587554925 0.07257654718744849
0.07432544468767006 0.07606072967615729 0.07778291598929665 0.07949248356987373 0.08118988160479113 0.08287553129341221 0.08454982829880313 0.0862131449255685
0.08786583206099205 0.08950822091046977 0.09114062455351189 0.09276333934268782 0.09437664616464432 0.09598081157961563 0.09757608885356875 0.09916271889521013
0.10074093110845705 0.10231094416959996 0.1038729667372068 0.10542719810181703 0.10697382878161009 0.10851304106949208 0.11004500953640302 0.11156990149509266
0.11308787742813106 0.11459909138350029 0.1161036913407476 0.11760181955035992 0.11909361284873783 0.12057920295090059 0.12205871672283498 0.12353227643520895
0.125 0.12646200119143772 0.127918389852525 0.12936927208828333 0.13081475044676077 0.13225492408874545 0.13368988894704326 0.13511973787610046
0.1365445607926847 0.13796444480827474 0.13937947435375475 0.14078973129695826 0.14219529505356124 0.1435962426917834 0.14499264903131906 0.14638458673688556
0.14777212640674622 0.14915533665653738 0.1505342841987032 0.1519090339178195 0.15327964894206567 0.15464619071108557 0.1560087190404601 0.1573672921829978
0.15872196688703527 0.1600727984519259 0.161419840780882 0.16276314643132514 0.16410276666288778 0.16543875148320025 0.16677114969158796 0.1681000089207954
0.1694253756768459 0.1707472953771387 0.17206581238687907 0.17338097005393022 0.17469281074217108 0.17600137586343767 0.1773067059081223 0.17860884047449918
0.17990781829684113 0.1812036772723889 0.18249645448722998 0.183786186241141 0.18507290807144425 0.18635665477592686 0.18763746043486693 0.18891535843220966
0.19019038147593373 0.19146256161764538 0.19273193027143648 0.19399851823204028 0.1952623556923168 0.1965234722600984 0.19778189697442372 0.19903765832118805
0.2002907842482347 0.20154130217991298 0.20278923903112483 0.20403462122088303 0.2052774746854011 0.20651782489073517 0.20775569684499626 0.20899111511015112
0.21022410381342863 0.21145468665834766 0.2126828869353819 0.21390872753227663 0.21513223094403078 0.2163534192825581 0.2175723142860398 0.21878893732798066
0.2200033094259808 0.22121545125023281 0.2224253831317564 0.22363312507037872 0.22483869674247173 0.22604211750845435 0.22724340642006888 0.2284425822274398
0.22963966338592295 0.23083466806275266 0.23202761414349435 0.23321851923830936 0.23440740068803884 0.23559427557011292 0.2367791607042918 0.23796207265824398
0.23914302775296778 0.24032204206806126 0.2414991314468461 0.24267431150134994 0.2438475976171523 0.2450190049580987 0.246188548470887 0.24735624288953081
0.24852210273970332 0.24968614234296616 0.2508483758208865 0.2520088170990462 0.25316747991094685 0.2543243778018131 0.25547952413229874 0.25663293208209736
0.25778461465346164 0.2589345846746336 0.26008285480318827 0.26122943752929434 0.26237434517889363 0.26351758991680185 0.26465918374973346 0.2657991385292529
0.2669374659546535 0.2680741775757678 0.26920928479570966 0.2703427988735516 0.2714747309269381 0.27260509193463733 0.2737338927390335 0.2748611440485602
0.27598685644007825 0.2771110403611975 0.2782337061325465 0.2793548639499896 0.28047452388679384 0.2815926958957472 0.28270938981122856 0.2838246153512324
0.2849383821193472 0.28605069960669155 0.2871615771938062 0.2882710241525058 0.2893790496476896 0.29048566273911347 0.29159087238312315 0.2926946874343506
0.2937971166473745 0.2948981686783446 0.29599785208657275 0.29709617533608956 0.29819314679716935 0.29928877474782256 0.30038306737525783 0.30147603277731366
0.30256767896386066 0.30365801385817526 0.3047470452982856 0.3058347810382899 0.3069212287496487 0.3080063960224508 0.30909029036665403 0.3101729192133019
0.31125428991571547 0.3123344097506622 0.31341328591950185 0.3144909255493102 0.3155673356939806 0.3166425233353045 0.3177164953840314 0.31878925868090807
0.31986081999769833 0.32093118603818327 0.3220003634391429 0.32306835877131884 0.3241351785403596 0.32520082918774773 0.3262653170917101 0.3273286485681111
0.3283908298713299 0.3294518671951208 0.33051176667345905 0.33157053438137013 0.33262817633574476 0.33368469849613935 0.3347401067655614 0.33579440699124147
0.33684760496539146 0.33789970642594896 0.33895071705730895 0.34000064249104256 0.3410494883066031 0.34209726003201985 0.34314396314458007 0.3441896030714989
0.34523418519057786 0.34627771483085223 0.3473201972732271 0.34836163775110274 0.3494020414509896 0.3504414135131125 0.35147975903200496 0.3525170830570939
00000000: 0000 0000 0000 0000 cd3b 7f66 9ea0 763f
00000010: 15b7 310a fe06 833f c0ba 7a5c 28ca 893f
00000020: 0000 0000 0000 903f 81b3 1671 32ea 923f
00000030: 2c81 d20f bbaf 953f 9df8 398e 2858 983f
00000040: add3 5a99 9fe8 9a3f c6b1 0d1e d564 9d3f
00000050: a0d2 cc7f 92cf 9f3f e88c 96e1 8015 a13f
00000060: d0f9 2432 6e3c a23f 7b7d 7ed3 445d a33f
00000070: de5b 4a84 9978 a43f 74fc c341 e98e a53f
00000080: cd3b 7f66 9ea0 a63f 7ad4 826e 14ae a73f
00000090: 0d7a 65cb 9ab7 a83f 1f02 2c0e 77bd a93f
000000a0: c7a1 c795 e6bf aa3f 1424 79e2 1fbf ab3f
000000b0: 2309 cba4 53bb ac3f a113 6798 adb4 ad3f
000000c0: 56a3 a336 55ab ae3f 27f2 9049 6e9f af3f
000000d0: 5bfd 0eb3 8c48 b03f e228 2c29 3ac0 b03f
000000e0: aa07 d12d cd36 b13f c399 ee4f 52ac b13f
000000f0: 9884 f325 d520 b23f e46e a068 6094 b23f
00000100: 15b7 310a fe06 b33f e00f 784a b778 b33f
00000110: 308e 5cc8 94e9 b33f 6ade 3591 9e59 b43f
00000120: 8039 422e dcc8 b43f 7238 8bb0 5437 b53f
00000130: 93ff 6cbb 0ea5 b53f cecc f08d 1012 b63f
00000140: 2646 230b 607e b63f bb9a 88c1 02ea b63f
00000150: 675a cbf1 fd54 b73f bc9d be94 56bf b73f
00000160: 1587 c860 1129 b83f 2c2a c7ce 3292 b83f
00000170: 2a67 7f1e bffa b83f 992a a35a ba62 b93f
00000180: c0ba 7a5c 28ca b93f 6037 3bcf 0c31 ba3f
00000190: 0826 1333 6b97 ba3f aaca f4df 46fd ba3f
000001a0: 6719 2508 a362 bb3f be3d 95ba 82c7 bb3f
000001b0: f5fe 0be5 e82b bc3f 64ad 2356 d88f bc3f
000001c0: b6bc 20bf 53f3 bc3f 15b9 a4b5 5d56 bd3f
000001d0: 20de 40b5 f8b8 bd3f 543c eb20 271b be3f
000001e0: 5d0a 5944 eb7c be3f 357a 4055 47de be3f
000001f0: 892c 8474 3d3f bf3f c226 4aaf cf9f bf3f
00000200: 0000 0000 0000 c03f 71e7 a627 e82f c03f
00000210: 0b9e 7c3a a15f c03f 09fe 5c1c 2c8f c03f
00000220: 226a 80a9 89be c03f 9a1a d9b6 baed c03f
00000230: 98ad 6a12 c01c c13f a968 9c83 9a4b c13f
00000240: d78f 86cb 4a7a c13f dc2d 3ba5 d1a8 c13f
00000250: 4ca1 0ac6 2fd7 c13f 6c3b c4dd 6505 c23f
00000260: 0137 f396 7433 c23f b847 1897 5c61 c23f
00000270: 6dfd df7e 1e8f c23f ef31 56ea babc c23f
00000280: 81b3 1671 32ea c23f 755a 7ba6 8517 c33f
00000290: a1b4 c719 b544 c33f 406e 5256 c171 c33f
000002a0: bb9c ace3 aa9e c33f 3d0d c745 72cb c33f
000002b0: 64b6 15fd 17f8 c33f 276a b186 9c24 c43f
000002c0: e2e2 775c 0051 c43f b044 2af5 437d c43f
000002d0: 482a 8ac4 67a9 c43f 2b53 753b 6cd5 c43f
000002e0: 4707 00c8 5101 c53f e642 8ed5 182d c53f
000002f0: 86bc ebcc c158 c53f fad4 6214 4d84 c53f
00000300: 2c81 d20f bbaf c53f cf3b c320 0cdb c53f
00000310: 720c 7ba6 4006 c63f 7ab0 10fe 5831 c63f
00000320: d2f1 7d82 555c c63f 4436 b18c 3687 c63f
00000330: ee51 9e73 fcb1 c63f 77a6 4e8c a7dc c63f
00000340: 2598 f029 3807 c73f 7261 e69d ae31 c73f
00000350: 2d4d d437 0b5c c73f b95e ae45 4e86 c73f
00000360: 936f c513 78b0 c73f e3c8 d3ec 88da c73f
00000370: 673f 091a 8104 c83f b9d7 16e3 602e c83f
00000380: 9df8 398e 2858 c83f a330 4760 d881 c83f
00000390: 2e94 b49c 70ab c83f a8b8 a385 f1d4 c83f
000003a0: 5a51 eb5b 5bfe c83f 3972 205f ae27 c93f
000003b0: a47c 9fcd ea50 c93f f5b9 94e4 107a c93f
000003c0: 72a7 04e0 20a3 c93f 25f7 d3fa 1acc c93f
000003d0: c248 cf6e fff4 c93f c99d b274 ce1d ca3f
000003e0: c78b 3044 8846 ca3f 822f f913 2d6f ca3f
000003f0: b7e3 c019 bd97 ca3f e8bd 468a 38c0 ca3f
00000400: add3 5a99 9fe8 ca3f bc4a e479 f210 cb3f
00000410: da35 e75d 3139 cb3f d040 8a76 5c61 cb3f
00000420: 442d 1cf4 7389 cb3f 6b22 1906 78b1 cb3f
00000430: 4ad1 2fdb 68d9 cb3f 446f 46a1 4601 cc3f
00000440: 9888 7f85 1129 cc3f 45ac 3eb4 c950 cc3f
00000450: eff2 2c59 6f78 cc3f 0962 3d9f 02a0 cc3f
00000460: bd2c b1b0 83c7 cc3f c7d3 1bb7 f2ee cc3f
00000470: 8325 67db 4f16 cd3f 5e1f d745 9b3d cd3f
00000480: c6b1 0d1e d564 cd3f a867 0e8b fd8b cd3f
00000490: 93f2 41b3 14b3 cd3f 679c 79bc 1ada cd3f
000004a0: 929f f2cb 0f01 ce3f b466 5906 f427 ce3f
000004b0: 9bb4 cc8f c74e ce3f 54b5 e08b 8a75 ce3f
000004c0: 2ff9 a11d 3d9c ce3f 6b5a 9867 dfc2 ce3f
000004d0: 54ce c98b 71e9 ce3f 7a22 bdab f30f cf3f
000004e0: aea6 7ce8 6536 cf3f 78c4 9862 c85c cf3f
000004f0: 9084 2a3a 1b83 cf3f 0703 d68e 5ea9 cf3f
00000500: a0d2 cc7f 92cf cf3f f84f d02b b7f5 cf3f
00000510: 7af2 9958 e60d d03f 809e ef96 e920 d03f
00000520: 4f35 a85f e533 d03f 5bff 4ec1 d946 d03f
00000530: 1189 3cca c659 d03f eea0 9788 ac6c d03f
00000540: 234f 560a 8b7f d03f f8c6 3e5d 6292 d03f
00000550: 1652 e88e 32a5 d03f f935 bcac fbb7 d03f
00000560: ad93 f6c3 bdca d03f 0042 a7e1 78dd d03f
00000570: 5da2 b212 2df0 d03f 7970 d263 da02 d13f
00000580: e88c 96e1 8015 d13f e0c2 6598 2028 d13f
00000590: 2f89 7e94 b93a d13f a0be f7e1 4b4d d13f
000005a0: e061 c18c d75f d13f 1245 a5a0 5c72 d13f
000005b0: 2abd 4729 db84 d13f 304d 2832 5397 d13f
000005c0: 8c4d a2c6 c4a9 d13f 6e8f edf1 2fbc d13f
000005d0: 82fc 1ebf 94ce d13f f332 2939 f3e0 d13f
000005e0: e81d dd6a 4bf3 d13f 928a ea5e 9d05 d23f
000005f0: d5b9 e01f e917 d23f c2ee 2eb8 2e2a d23f
00000600: d0f9 2432 6e3c d23f 17c1 f397 a74e d23f
00000610: 76c5 adf3 da60 d23f e1a4 474f 0873 d23f
00000620: cd99 98b4 2f85 d23f dcf7 5a2d 5197 d23f
00000630: dda5 2cc3 6ca9 d23f 2595 8f7f 82bb d23f
00000640: 6836 ea6b 92cd d23f 0aec 8791 9cdf d23f
00000650: 117a 99f9 a0f1 d23f b273 35ad 9f03 d33f
00000660: 9ea6 58b5 9815 d33f 0884 e61a 8c27 d33f
00000670: 8787 a9e6 7939 d33f d59b 5321 624b d33f
00000680: 7b7d 7ed3 445d d33f 7c1b ac05 226f d33f
00000690: 0bf6 46c0 f980 d33f 4f7b a20b cc92 d33f
000006a0: 5362 fbef 98a4 d33f 1b04 7875 60b6 d33f
000006b0: f6b2 28a4 22c8 d33f 1610 0884 dfd9 d33f
000006c0: 725f fb1c 97eb d33f 08da d276 49fd d33f
000006d0: 7dfe 4999 f60e d43f 2fe0 078c 9e20 d43f
000006e0: bd74 9f56 4132 d43f 0ce0 8f00 df43 d43f
000006f0: dfbe 4491 7755 d43f f96f 1610 0b67 d43f
00000700: de5b 4a84 9978 d43f 363b 13f5 228a d43f
00000710: e15b 9169 a79b d43f b5e4 d2e8 26ad d43f
00000720: 0318 d479 a1be d43f d494 7f23 17d0 d43f
00000730: f996 aeec 87e1 d43f e535 29dc f3f2 d43f
00000740: 65a2 a6f8 5a04 d53f 3163 cd48 bd15 d53f
00000750: 6a90 33d3 1a27 d53f fb0d 5f9e 7338 d53f
00000760: efc4 c5b0 c749 d53f c6db cd10 175b d53f
00000770: b9ed cdc4 616c d53f 0f41 0dd3 a77d d53f
00000780: 74fc c341 e98e d53f 5f5b 1b17 26a0 d53f
00000790: 8ce1 2d59 5eb1 d53f 928d 070e 92c2 d53f
000007a0: 900a a63b c1d3 d53f 01e1 f8e7 ebe4 d53f
000007b0: b8a6 e118 12f6 d53f 052e 34d4 3307 d63f
000007c0: 0db4 b61f 5118 d63f 540e 2201 6a29 d63f
000007d0: 83d7 217e 7e3a d63f 689b 549c 8e4b d63f
000007e0: 3d02 4c61 9a5c d63f 2dfb 8cd2 a16d d63f
000007f0: 25e6 8ff5 a47e d63f f9bc c0cf a38f d63f

noise_vec1 f8 [1024]
-0.004458154015924144 -0.04470509779422535 0.0019283592752172873 -0.0563053305326538 -0.0046361045671861325 -0.022343259282221396 0.019653574309823812 0.026170400707154234
-0.008773345196216495 -0.06399096447756239 -0.02861061238498304 -0.030294869910985348 0.016334314755726716 -0.06455449111014987 0.016065538372047793 -0.0370447138890379
0.02030853457529934 0.019043341973572228 -0.013292951916791572 -0.011388945429181925 0.010601026015300824 -0.04461147959588242 0.03781641529174725 -0.07393024078107888
-0.025512383119670898 0.03935688973400981 -0.0408885322939582 0.011450948647085955 -0.025343056900460174 -0.008372847777654275 -0.030991178521883895 -0.07263027517698543
-0.021349738172313917 -0.02810802114820017 0.04870264917035951 -0.042427787694355665 -0.005985574050059698 0.038882124226739596 -0.028572962399854393 0.024958026594183096
-0.021458418162908735 0.01035133944349234 0.012433813645346648 0.039629325749492066 -0.0024237829125854883 0.05192389824384495 0.0036002678693982043 -0.04202938411252453
0.004313912091575098 -0.04453091123407511 -0.022213323599491068 0.0005275665509220426 -0.011046724524244735 0.05450639138005457 0.027458260007079086 0.07910995778434059
-0.03282961969510978 0.008099814958410704 -0.03857325987559652 0.025216693579408186 0.0477257719182895 0.010842869092873604 0.03165101642482212 0.014201683805972176
-0.046615197264785246 0.0019308025458451368 -0.06937209081268508 0.012248940521499075 -0.037759996852340966 0.02919620672504149 0.02533345243593209 -0.02508303454943912
0.01276797953917701 4.4910026657171915e-05 -0.045936243078032485 0.001986631852904842 -0.01296350253497842 0.05126456338616331 0.004681423459024226 0.011085758356604147
0.020223567690264455 0.010843647270025231 0.009091868510405186 0.024861568042061317 -0.0029684969097939595 -0.027464934099738873 -0.008957306032018521 -0.0137384003345501
0.004630355933075734 -0.006163780155940618 -0.0005920464059170743 -0.01919157773780604 0.04759791597122884 0.017087875547530433 0.02213141843381098 0.007942859777249484
-0.008483483759287442 0.05466006231746997 -0.038120317783847085 0.029212413726937066 0.0125358587896761 0.016924994494704342 -0.002112276696697092 0.03362994512409399
-0.013296845077211654 0.0028596530936631235 -2.4679496382862794e-05 -0.02782053446066392 0.03038147558025567 0.009937173283451773 -0.060693138000449474 -0.04019061262441758
-0.012984346136578251 0.07712378156735983 -0.06125821059758621 0.00035168271563713524 0.007963537821680702 -0.029973574530193597 0.00671571112101575 -0.06301175804812359
-0.019690336560946466 0.019636668264970958 -0.004468882026512733 0.004483078294991729 -0.030558789642988797 0.044304992218117276 0.030354808226813024 0.0023614842043688565
0.034454057922184894 -0.0103410033205189 -0.051928967283781616 0.01624475117260561 -0.025009852137515613 0.026660618135046478 -0.054185328317930014 0.02045450500223248
0.010022624105559673 7.395053365261054e-05 0.025199964152486317 0.033661424346380434 0.010484836418611308 0.011476474829831985 -0.017942490518119438 -0.014274986240333671
0.008415475537452555 -0.012149162203442487 0.03381136129869156 0.04009413917154764 0.018548201636441806 0.0278371962984296 0.0014135990868025202 0.053987446350554746
0.005336648743289003 -0.006015658083926814 0.006763940415298064 0.00943020761968436 0.005742681570088934 0.010041645244608915 -0.033997631346411615 0.021926182004051553
0.023684881188566757 -0.018767205150647056 -0.053089813025292934 0.0016302808882155608 0.06770513250407394 -0.001731615626214544 -0.04294197842903687 0.03252439256816265
0.023015338180324692 0.023144697623287167 -0.02860590446963708 0.04831333186818376 0.007556466553377908 0.0176237144657539 -0.05142055763624163 -0.06139725309320019
-0.03264561100399074 0.04601325060957239 0.041331101060234327 -0.0273052079743433 0.04253991916089663 0.0013568788616885796 0.007965244037323203 -0.038996291871189796
0.0032368925464427564 -0.007226609185768476 -0.011418740781863645 0.0045232339727264365 -0.011724279508919164 -0.019997092476664455 -0.014675959791592814 -0.026123916290397543
-0.04149428071026004 0.013723037672842475 -0.008484663609339407 0.014665224093967167 -0.00820109532038482 -0.057322861122093435 -0.027538297739410193 0.009309356369392448
-0.05444578214404139 -0.007362282191761413 -0.0387412268249527 0.029655307018950305 0.006202312623436175 0.04364699009870868 -0.028461838263862255 0.01572091451901709
-0.010621026606745887 -0.006976069430854466 0.02428275148640224 -0.0186547831453581 -0.005148133122196312 0.04725276690317763 0.03376831176334645 -0.02667510504392989
-0.05947438009130234 0.014473067929641885 0.020455967512388165 -0.02528676809103742 -0.0357578694607727 -0.016509135811736485 0.014155003581661923 0.003161248914518734
-0.022862558701881114 0.00042225020650815817 0.0031160038925568227 -0.01105252631452505 -0.04774287447744271 0.06214061671911088 -0.024377159767832408 0.030441636473547275
0.0009927950381632118 0.02850978600862605 0.011805015756395247 -0.0068345173937766224 -0.008310207635104264 0.002906275745121493 0.03396804663133054 0.02632498700703639
0.0369776862908038 0.0382197889782782 0.0021179176314359664 -0.008405888272214782 0.02568808833780685 -0.025656441465568138 0.037923345986460494 0.007100475102514202
0.04347866067049455 -0.03967653499243255 0.04425533420560917 0.010782487929058995 0.05054586771089488 -0.016234014390225784 -0.05621975722650055 0.012662264716142128
00000000: 41cc 2e9b b642 72bf 5c3a fb29 96e3 a6bf
00000010: 0f64 6801 2098 5f3f 08d9 7462 0dd4 acbf
00000020: 1f4e f3d7 4efd 72bf aadd 9cbf 26e1 96bf
00000030: 380b a40b 1120 943f 184b a4dc 69cc 9a3f
00000040: abdc 8d75 c2f7 81bf 4aae ab3b b661 b0bf
00000050: d452 0cb2 194c 9dbf d15b 044e 9e05 9fbf
00000060: cfb2 b64e f1b9 903f afc5 20a4 a486 b0bf
00000070: 3631 9a07 7c73 903f b743 4955 86f7 a2bf
00000080: bc87 52af c2cb 943f 34a1 ee0b 1980 933f
00000090: 39d6 ffcd 5539 8bbf 51ef 3b61 1653 87bf
000000a0: dd6e 51a0 fdb5 853f d2ed c7db 50d7 a6bf
000000b0: 1b2a dc55 ac5c a33f 5e13 579e 17ed b2bf
000000c0: cc6a 910c eb1f 9abf 8948 8f14 9626 a43f
000000d0: 95cd f779 57ef a4bf 7f4b 944f 9873 873f
000000e0: 6ec7 45c2 87f3 99bf d708 099b c825 81bf
000000f0: 352c ddc8 26bc 9fbf 83aa 95d0 e597 b2bf
00000100: a7ba e9ac b4dc 95bf 14e1 585e 59c8 9cbf
00000110: 639c d4ba 8def a83f d682 2d51 18b9 a5bf
00000120: 5e47 af4c 5484 78bf b9dc e797 5be8 a33f
00000130: dc95 3a0c 3b42 9dbf 7b96 facf 988e 993f
00000140: 0431 ef10 32f9 95bf cf68 0943 1533 853f
00000150: ad44 c537 e676 893f 8ffa 1c84 4b4a a43f
00000160: f6f5 f28a 0adb 63bf 7521 ade9 c495 aa3f
00000170: 725f 3018 4f7e 6d3f 1df8 771c e084 a5bf
00000180: b03e 9ef5 76ab 713f 2aa7 d26e c1cc a6bf
00000190: 0ec4 94e9 16bf 96bf 310d 958a 8c49 413f
000001a0: 8ef6 7944 aa9f 86bf 86f5 cc00 43e8 ab3f
000001b0: e41e f1a2 041e 9c3f 3fc0 78d9 8c40 b43f
000001c0: 7079 dc3d 0bcf a0bf 35da ccc2 a296 803f
000001d0: 39e3 54d3 dfbf a3bf ac7e f2a8 67d2 993f
000001e0: 3c7d 212b 836f a83f 518a 3041 c934 863f
000001f0: cb0a dce0 8f34 a03f f350 f5bb c515 8d3f
00000200: 2068 7f77 f2dd a7bf a728 8672 5fa2 5f3f
00000210: 0cae 4b8d 5ec2 b1bf 4d99 9af7 f815 893f
00000220: 3cde 273f 4755 a3bf 358a 3444 9ce5 9d3f
00000230: fc11 d436 03f1 993f d30f 4cf4 5daf 99bf
00000240: da3f 7434 1926 8a3f 2038 1bc4 b88b 073f
00000250: 7448 718b f484 a7bf 3521 ccda 4446 603f
00000260: a54c 6fdb 9b8c 8abf 88e4 5f4e 593f aa3f
00000270: 01d9 7b0a d42c 733f e668 be4c 21b4 863f
00000280: 403e 5aa7 7cb5 943f 5d27 27b3 3135 863f
00000290: 2c35 4bef c19e 823f 65f6 ab96 4f75 993f
000002a0: 17bd aaa4 6351 68bf ce0e fb86 c41f 9cbf
000002b0: 0e05 be43 3558 82bf 4409 17e1 e022 8cbf
000002c0: a488 d2b4 47f7 723f d32f 0823 313f 79bf
000002d0: 6b91 bef9 7166 43bf cc56 f8fa f4a6 93bf
000002e0: cc8a e808 c15e a83f defe 89ea 7b7f 913f
000002f0: ea9a 8c59 9ea9 963f 700a d797 5844 803f
00000300: 4a15 6bea c95f 81bf bb09 1a58 67fc ab3f
00000310: 54b6 639c 8184 a3bf a2ae 60e6 dbe9 9d3f
00000320: 3841 3b7c 66ac 893f 8be3 5b27 c954 913f
00000330: d028 a3ea c34d 61bf fed1 f2b4 f137 a13f
00000340: cf0a f955 603b 8bbf 426c 7c90 206d 673f
00000350: 698d d913 dae0 f9be 85c5 a976 fc7c 9cbf
00000360: 51ef 1550 521c 9f3f ba0a 23d2 f059 843f
00000370: 4b6a 9bc5 2b13 afbf dff9 a72d dd93 a4bf
00000380: ade3 2170 8997 8abf 545e 9357 62be b33f
00000390: 1498 4176 3c5d afbf be80 21c3 410c 373f
000003a0: 0860 09f4 2f4f 803f 6bd5 6789 64b1 9ebf
000003b0: 6d76 25fa ee81 7b3f 1485 14e0 8921 b0bf
000003c0: 8a55 4e1e b429 94bf 5076 0080 a21b 943f
000003d0: 74f5 7462 f64d 72bf 822d 992a d95c 723f
000003e0: 6ee8 7ca8 cd4a 9fbf b6b0 40d9 24af a63f
000003f0: 802a 71b2 5415 9f3f ca69 b02d 6458 633f
00000400: 2c05 fb57 f6a3 a13f fd3e 8ef8 a92d 85bf
00000410: b2d5 6500 6f96 aabf 436e 12cc 76a2 903f
00000420: a1a0 08c4 2e9c 99bf 9ab7 eccb eb4c 9b3f
00000430: 33d9 18ea 2dbe abbf 896d 2998 06f2 943f
00000440: 8c20 07d6 bd86 843f c16f 867e bc62 133f
00000450: cfc9 94f7 04ce 993f e2b1 68f9 113c a13f
00000460: 3fbd 2cec 1279 853f 1a3b 8a60 fa80 873f
00000470: 57bb ef27 845f 92bf d7b6 6c38 343c 8dbf
00000480: 6d8c b501 223c 813f a65f b3f2 a8e1 88bf
00000490: 91b1 0506 b94f a13f 5892 0111 3887 a43f
000004a0: 0968 b6bd 4cfe 923f b939 db9e 5a81 9c3f
000004b0: 6afc 3c76 1029 573f 60bc f018 3ea4 ab3f
000004c0: 94a3 29bd e1db 753f 1d09 c0eb dfa3 78bf
000004d0: 9944 036e 81b4 7b3f 737a 910a 2550 833f
000004e0: f0d7 8e58 a385 773f b697 63cf b690 843f
000004f0: 5b71 8c35 2368 a1bf 10c0 882a d173 963f
00000500: ee49 7578 d940 983f eff9 6fd1 b537 93bf
00000510: d286 6385 962e abbf 5d93 48c6 e4b5 5a3f
00000520: 1758 e0a1 1f55 b13f fe22 f71e ec5e 5cbf
00000530: 4add f4b1 7dfc a5bf a117 ce84 09a7 a03f
00000540: 0fdb 2933 5591 973f b9a7 785d 3eb3 973f
00000550: 64a9 adc0 dd4a 9dbf 7056 ab68 86bc a83f
00000560: 5d6e 858b 87f3 7e3f 52cd 0e75 f30b 923f
00000570: 1d8c c79a cb53 aabf 8df5 32f4 756f afbf
00000580: dc7a 3def ecb6 a0bf effd 197d 0c8f a73f
00000590: 7406 b99e 5929 a53f 9887 0a7d e5f5 9bbf
000005a0: 231d 24d3 cac7 a53f 5c3e 7a95 293b 563f
000005b0: ece1 28f5 1450 803f 2f0a 816c 52f7 a3bf
000005c0: de9b 1574 4184 6a3f 1d53 d221 a699 7dbf
000005d0: b3c0 c171 b562 87bf 59a0 c25f f486 723f
000005e0: f2d1 7a28 e602 88bf d937 cf28 1e7a 94bf
000005f0: e408 bdfa 6d0e 8ebf 1a5b 7158 3ac0 9abf
00000600: bc43 3e05 bd3e a5bf 5396 0df0 d21a 8c3f
00000610: 7be4 c145 6860 81bf ad0f fa0e cd08 8e3f
00000620: 7f19 8a61 bccb 80bf d642 aa0b 6c59 adbf
00000630: 618e b6e0 ff32 9cbf 7e0f 3aa9 c810 833f
00000640: 0077 6d4b 51e0 abbf 23f5 cc93 e927 7ebf
00000650: 9baf 70dc e3d5 a3bf 9069 32f7 f55d 9e3f
00000660: 7b1e 099e 9867 793f 84e8 15f6 e558 a63f
00000670: 58fc 1ba2 1925 9dbf 32ba e3b6 2419 903f
00000680: 7348 680f 7ac0 85bf e25a f660 f092 7cbf
00000690: dfc6 f6dd 93dd 983f 0ad8 174e 3d1a 93bf
000006a0: 0519 5376 3516 75bf f643 fdc0 8331 a83f
000006b0: 3a54 5485 144a a13f dfc9 1fff b750 9bbf
000006c0: 0f50 e20a 6d73 aebf 89dd 714b 0ea4 8d3f
000006d0: 941d e5bd 68f2 943f 11e2 e347 c6e4 99bf
000006e0: 593b d1ff da4e a2bf 5626 9659 c5e7 90bf
000006f0: 56fc a96b 4cfd 8c3f e9d7 7996 9ee5 693f
00000700: f8b7 b557 4869 97bf 19f4 e2d3 2eac 3b3f
00000710: d8f7 01da bb86 693f cff6 78f8 b4a2 86bf
00000720: ebcb fe08 c171 a8bf 12ab 1f19 e5d0 af3f
00000730: 458a e37f 53f6 98bf e7c7 5ca4 172c 9f3f
00000740: 795c 1d8e 1544 503f 378f 175a ab31 9d3f
00000750: 3ce2 d164 3a2d 883f 921d 0bcb 82fe 7bbf
00000760: 823d 2030 f104 81bf 221a e9e8 e6ce 673f
00000770: 7bf8 c782 4264 a13f 8f27 0df9 eff4 9a3f
00000780: e3fb 9942 bdee a23f 1686 714f 8b91 a33f
00000790: d8f0 cd5e 9859 613f 42b0 c839 1b37 81bf
000007a0: d405 3b6d fa4d 9a3f 67fc 1aa4 ae45 9abf
000007b0: 3c92 8855 b06a a33f 722c 9f45 6315 7d3f
000007c0: f0ab 4ec3 d542 a63f f614 6c98 7b50 a4bf
000007d0: 475c 2c9a a2a8 a63f 7bd6 3208 2115 863f
000007e0: 1250 88e1 25e1 a93f 0725 8e43 a69f 90bf
000007f0: f48f 5a05 d6c8 acbf 2202 cb66 acee 893f

noise_vec2 f8 [1024]
0.03649601285130266 -0.02511424842058764 0.0035238680257216365 0.04537739529010809 -0.03166665034254187 -0.009931680979143353 -0.01905021314205734 0.0009538346219287955
-0.021335565754171074 0.018504345749471456 0.009522610352396453 0.010529464201606624 0.021999859610227098 0.0021535986398451626 -0.02979309978773438 0.03218235644538467
0.05409470195497973 0.014776396791385215 -0.018204277434132783 0.019511922979814435 -0.036815351151091004 -0.018166807102546322 -0.002187883699790709 -0.04288388765727202
0.0012634165621330708 0.05138798015026404 -0.024521195684943705 -0.024298963980173033 0.002932638141552394 0.06432291612972466 0.017802473042158456 -0.032833985285661935
-0.01854541399566095 -0.016526282225796107 -0.012244375252605393 -0.030252839060177738 0.010396445564604352 0.034021554612167236 -0.028794638390560047 0.004112970879157084
0.026005560487906153 0.06562159084212378 0.020453581278923372 -0.018152765327363717 0.02157577536407563 -0.021127594108133824 0.001614809099229056 -0.06354892848266291
0.009535349001130069 -0.006745010834018839 0.018031230532749236 -0.018392065210869182 0.02329228766739336 -0.0005224287730542629 -0.03406352865813979 -0.031857250211009935
-0.02247828807199256 -0.013532937343852667 0.021646089222274047 0.05830269079467119 -1.1834545427134913e-05 -0.01244243718613586 0.007483357880547456 0.010980464611941599
-0.0330455836030405 -0.0429303060152766 0.018673112301446828 0.07501182825570403 -0.05636885209549758 0.03450195478218091 0.018608987937286613 0.014057715277033627
0.060778689298802216 0.06365904468657156 0.018430546813030968 -0.06612542399800023 0.04718814985207937 0.0497085590785074 0.0029040471187960254 0.07418090699530623
-0.0444171057474003 -0.005053773301180686 0.030140780804076246 -0.011470884520562108 -0.026057056500124357 -0.06256562416612316 -0.0117203354969316 0.016065311390528966
0.0295217910705178 -0.07180717720811092 -0.001447609490001591 -0.010426145129944804 -0.0295494741239773 0.026844255038633653 -0.039696527019938026 0.0490663770797396
0.031013272320469888 -0.05709005506725393 0.017661472278148505 -0.005443665189904824 0.005005021845111203 -0.04004641907927856 -0.033176298213056656 0.00600538215884841
-0.018054104473945336 0.042626716913213764 -0.02694231680684991 -0.030118847071754874 0.00457179975618981 0.01988224550097267 0.03874289048810112 0.006650143449441052
-0.04423389537700287 -0.036207152481190205 -0.022059766034867822 0.03793012652266851 0.0038808522721058346 0.03936134440660954 0.014336873907502158 0.02217628102817373
0.003999513300080141 0.017736346506601414 0.041006309654117175 -0.03173115335145923 0.0237689302409187 0.0023166694594917796 0.008885535305616653 0.012019895885119003
-0.03913989986410007 0.01436446999188065 0.015810681620339946 0.01822033869241909 -0.0064885284832523465 0.0445043116634512 0.03566222069117566 -0.0368716886544076
-0.013129152762776139 0.03923557721355819 -0.05353534588444929 0.01879290317328717 -0.01868974032685144 -0.011714599375221598 -0.006759542994350451 -0.03424820097028981
0.02014322381277213 0.053069856714385154 0.006951745274501667 0.006208310535286827 0.033052221656986853 0.02052273729642531 -0.01429174110091594 -0.0015617002652671109
0.00941499218783007 -0.008253485553096119 0.04013932217149428 -0.03549900820114789 -0.014542858505924114 -0.01777639530497357 -0.03569901001718862 -0.06794079501092319
-0.0011931700202705293 0.00020921993976334352 -0.005446144994972941 -0.025560391117285006 0.004506803277373628 0.030792830373745188 0.06807143429625342 -0.011761018084150225
0.06787653409072074 -0.05282096882011561 0.00829238604012652 -0.009253931334383144 0.025549147896624012 0.020894105339674902 -0.017167133417108987 0.018682642420761647
0.05718373686590676 0.0007115609307031894 0.05674253139456501 0.007448578894913066 -0.07429499225793271 0.0168446406798683 0.009961669230960975 0.039469581160980254
0.0204212387993665 -0.027281715722646344 0.02310468865723705 -0.010732086542980936 -0.0016474855069316954 0.013077280321953821 0.038012994663255376 0.04321366749049614
-0.00370856880878477 0.021484341588506425 -0.02172109937140688 -0.04392350714383383 -0.02754930095037425 -0.049097964714124885 -0.040667566798465164 0.004730267434573155
-0.054932046420248244 0.013835559070375003 -0.023554653531168184 -0.03574493472711465 -0.004763375153954109 -0.04267447092929416 0.03605134994075587 0.004010568966715699
0.046774963638713786 -0.02233295903466302 0.058185897124290314 0.006358510171624467 -0.04439629185439769 -0.029407031968359622 0.020221339723931617 -0.034395494777008206
-0.020072850312050097 0.050999389190367526 0.02701540833165155 -0.0024248242923112684 0.04789795153430551 0.04338249155704346 -0.005097585106849982 -0.018781078770137977
0.017584895281742903 0.0069926997777765235 -0.022089697925111597 -0.013478474880318147 0.039849426266491475 -0.010393225444589487 -0.06979353543249216 -0.03146166864247873
0.004356908856924509 0.006143168213041017 0.017623076455764188 0.0061263478123199 -0.021431310115497745 -0.019300627569163856 0.026550293058146036 0.03347048248667915
-0.05992441708111199 -0.06535704851187467 0.008658377550350628 0.011465105975955512 0.011815038958398078 -0.06643736513599438 -0.057400985333874166 0.02777775433690351
-0.018916162756329468 0.012090692922523143 0.02059934989493943 -0.006260788619402559 0.024857838923413898 0.01212544294065559 -0.0014278723771902334 0.03742254381249414
00000000: 70f0 42fb 9aaf a23f 242a 85ae 8cb7 99bf
00000010: 89ed a03d 16de 6c3f d052 7fb9 b43b a73f
00000020: ebae 3077 9c36 a0bf 5370 ffa7 0f57 84bf
00000030: 7e36 b529 e681 93bf d09c e440 5841 4f3f
00000040: e48f 9f94 fdd8 95bf 9eb9 4f9f cdf2 923f
00000050: 8ceb 4920 9780 833f 4957 1fc3 7890 853f
00000060: 7f89 2b96 2187 963f 9050 4277 6ca4 613f
00000070: 246b f014 1582 9ebf 5cdd e1b0 347a a03f
00000080: 9827 91ff 4cb2 ab3f 8614 c667 1643 8e3f
00000090: 625b e860 24a4 92bf 874d 52fc eefa 933f
000000a0: ed8f 5e32 76d9 a2bf d340 83c9 519a 92bf
000000b0: d786 041e 53ec 61bf 0fd2 067e e0f4 a5bf
000000c0: d890 3234 27b3 543f 7246 4e7c 864f aa3f
000000d0: df43 1a96 151c 99bf 1871 7cde d3e1 98bf
000000e0: bb47 161d 3006 683f ba17 2975 7777 b03f
000000f0: 8816 04be cf3a 923f 6e9f ffb9 9dcf a0bf
00000100: 8f98 68aa 91fd 92bf c0ae bc06 44ec 90bf
00000110: 16bd 283a 9413 89bf 039b 7fa9 99fa 9ebf
00000120: e794 8e4d bb4a 853f 2b30 d6f0 456b a13f
00000130: 9a1a c078 577c 9dbf 8b65 a536 c3d8 703f
00000140: c323 3d9f 33a1 9a3f fd12 949a 93cc b03f
00000150: dd59 b79a c8f1 943f d3e6 a675 a396 92bf
00000160: 2256 4cc6 f517 963f a54c f3d6 78a2 95bf
00000170: da69 4f11 0075 5a3f b064 8719 be44 b0bf
00000180: 8128 ede0 4487 833f 34a9 170f a8a0 7bbf
00000190: 3e78 c765 c776 923f 14a9 589a 5ed5 92bf
000001a0: c935 1ff7 eed9 973f 6e36 543f 731e 41bf
000001b0: 5269 255b c670 a1bf 20f3 97ef 974f a0bf
000001c0: 179e 8e60 8c04 97bf 923d 7c1a 28b7 8bbf
000001d0: 7a11 2f75 642a 963f 4dbd 76ac d9d9 ad3f
000001e0: ee7c cf89 9fd1 e8be 223b 60a6 6b7b 89bf
000001f0: 9689 c795 dea6 7e3f 8db3 3903 ed7c 863f
00000200: b95f b4c9 59eb a0bf a28e af08 f6fa a5bf
00000210: d7d4 985a 0b1f 933f 05e2 2ba5 f933 b33f
00000220: 30c5 86d0 60dc acbf f504 e07e 3daa a13f
00000230: 83c2 680a 3c0e 933f 9680 f89a 4aca 8c3f
00000240: 1a09 aa65 621e af3f 57ff 058b f54b b03f
00000250: 30ca 3c0f 75df 923f 5e6b 8185 98ed b0bf
00000260: f931 bf90 0b29 a83f 479e 2577 6673 a93f
00000270: 4938 d76c 3aca 673f 294f 8819 85fd b23f
00000280: 7dd8 22c1 d6bd a6bf 4dac ccf0 43b3 74bf
00000290: 6551 518f 39dd 9e3f c0de f90e 0c7e 87bf
000002a0: 0103 fe75 b3ae 9abf 2cb7 a5fd 4c04 b0bf
000002b0: 2d7f 42cd d400 88bf 4fea 16cc 6c73 903f
000002c0: 663b abdc f53a 9e3f f816 ba85 f461 b2bf
000002d0: a314 afda b6b7 57bf 1109 da82 4d5a 85bf
000002e0: 92ea e7a3 3742 9ebf 45d9 e775 0f7d 9b3f
000002f0: f77d a16a 1a53 a4bf f007 c869 3a1f a93f
00000300: faf5 6e79 f1c1 9f3f bda2 e15e e83a adbf
00000310: fdde 5557 d915 923f 1b51 60bf 184c 76bf
00000320: 0290 3f52 2580 743f 35ea 88d8 f680 a4bf
00000330: cda3 a7d7 7bfc a0bf 2047 8e7f 1999 783f
00000340: 0ebe 1871 c67c 92bf 24fd 2746 2bd3 a53f
00000350: c76c 4146 c496 9bbf 0d68 aa9c 79d7 9ebf
00000360: f4b4 fc26 e1b9 723f 4f77 cae8 025c 943f
00000370: 84a3 32af 1bd6 a33f 119f 104a 2e3d 7b3f
00000380: f4ae 093c d3a5 a6bf 5e74 936f be89 a2bf
00000390: c36b b5d6 d596 96bf b560 e5d9 936b a33f
000003a0: 8f8f dbb2 bcca 6f3f 0fed e78d 2b27 a43f
000003b0: 410e 7aa4 a65c 8d3f a738 0d07 61b5 963f
000003c0: 4420 2e2d cb61 703f 0817 c910 7a29 923f
000003d0: 29c5 c96d c7fe a43f 7b58 d1d3 103f a0bf
000003e0: 31bf 2ee8 e156 983f 9397 0d72 68fa 623f
000003f0: 4651 5c5c 9432 823f 0dc3 d21d e39d 883f
00000400: f321 c51b 250a a4bf 2f4c b786 1e6b 8d3f
00000410: 2283 f2e1 ac30 903f b653 393b 5aa8 923f
00000420: 1ede 271a b793 7abf 6843 40e6 44c9 a63f
00000430: e385 248f 5142 a23f e083 d691 d8e0 a2bf
00000440: 7828 ec0d 75e3 8abf e09e f181 af16 a43f
00000450: 8eec 811f fc68 abbf 7aca 1a62 723e 933f
00000460: dff2 e53d 6723 93bf 5159 9ee9 d2fd 87bf
00000470: 8ad7 8b01 e5af 7bbf 627c 3aee fa88 a1bf
00000480: 4426 0cde 6ca0 943f d3be fbe5 f82b ab3f
00000490: 506c aae9 6e79 7c3f 1446 66ab e26d 793f
000004a0: a15f 2786 38ec a03f e7d8 0c96 e903 953f
000004b0: 51f8 0c05 fd44 8dbf 76c5 30e4 3e96 59bf
000004c0: d183 4fdc 2a48 833f ba7b 3a14 34e7 80bf
000004d0: be35 0528 248d a43f fa5a 870e ed2c a2bf
000004e0: d8ea 626d a5c8 8dbf 670b e7b1 f933 92bf
000004f0: 49fb 0b01 2447 a2bf 0fdb a264 9164 b1bf
00000500: 03e0 cc8d 848c 53bf 7d95 1099 416c 2b3f
00000510: d46d 486a b24e 76bf 39d4 afcf 802c 9abf
00000520: 0024 f9ca b975 723f 6e44 a0dd 2788 9f3f
00000530: e21e 1828 216d b13f 4f0e 5020 2916 88bf
00000540: abe1 1546 5b60 b13f a838 409b 590b abbf
00000550: 0d03 c936 99fb 803f 0b5c 86a3 b9f3 82bf
00000560: 666d a04a 8e29 9a3f f2cb 73ac 4365 953f
00000570: e8c5 5ed2 4294 91bf 98d5 cce8 8a21 933f
00000580: c67e 67cf 2f47 ad3f 4cf2 9676 0151 473f
00000590: b589 4369 5b0d ad3f 3ad2 15ac 6682 7e3f
000005a0: fa1f 0122 ff04 b3bf 32e5 54b3 b83f 913f
000005b0: feff 7b9c c866 843f 87e4 8b60 5b35 a43f
000005c0: b9f9 2523 4ee9 943f 78ea 3af3 bcef 9bbf
000005d0: 071b ab68 c1a8 973f 6e72 c245 b4fa 85bf
000005e0: 81af dd17 0efe 5abf 6065 6dda 42c8 8a3f
000005f0: 32ac cd71 7076 a33f de4a 3911 1a20 a63f
00000600: de51 f5b7 6e61 6ebf 7fb2 fec1 fdff 953f
00000610: 63c2 bb4d 0e3e 96bf ebb1 6a55 247d a6bf
00000620: c825 704a e235 9cbf d3a1 7e51 5e23 a9bf
00000630: 0f8a d01a 61d2 a4bf 74da ec7e 0b60 733f
00000640: 1930 c19d 0d20 acbf ad45 d54d d155 8c3f
00000650: 8b04 570a b61e 98bf 081d 4dfb 284d a2bf
00000660: 9bb5 13c8 c282 73bf 48e5 07a2 6dd9 a5bf
00000670: f0c3 f191 5275 a23f 7f6c cee8 626d 703f
00000680: 7d21 3356 e3f2 a73f 3b07 b582 73de 96bf
00000690: 7c78 79ba 8aca ad3f 7587 d093 610b 7a3f
000006a0: 2718 285b 1cbb a6bf 2a5e 4e82 e01c 9ebf
000006b0: a9af 2e23 e7b4 943f c0db 644a 499c a1bf
000006c0: 24d3 822e fa8d 94bf c390 6089 971c aa3f
000006d0: ee11 175d eda9 9b3f e9b7 16a1 39dd 63bf
000006e0: 8c3d c58e 1486 a83f 14ba e9dc 3a36 a63f
000006f0: f8f2 2895 34e1 74bf 55c6 67dc 583b 93bf
00000700: a2ff 8d58 c601 923f 1a64 b38d 60a4 7c3f
00000710: dae0 aa88 ae9e 96bf b3c5 7c46 9a9a 8bbf
00000720: 626b 28dd 2467 a43f 6363 131b 0b49 85bf
00000730: 139f 2738 fddd b1bf 2748 cb6b be1b a0bf
00000740: 6f94 d5d0 8cd8 713f cdf5 1929 9429 793f
00000750: 5731 21a4 c80b 923f f421 f7f7 f017 793f
00000760: 4cda 39e0 16f2 95bf c4ad ce30 8bc3 93bf
00000770: fd2a 8901 0030 9b3f dec0 5207 0b23 a13f
00000780: 45c3 30c7 69ae aebf 23ed eb51 3dbb b0bf
00000790: 1448 52c3 7bbb 813f 3ffa b179 047b 873f
000007a0: bd14 6baf 7b32 883f 5ed3 7d06 0a02 b1bf
000007b0: e0c9 8875 a963 adbf f5b8 bb89 c571 9c3f
000007c0: 43f3 9d31 c25e 93bf 2977 8155 01c3 883f
000007d0: ec72 78f8 fe17 953f cf4a e1a5 e9a4 79bf
000007e0: a9b4 e654 5574 993f 5d7b 0967 39d5 883f
000007f0: 3dda 6c4a ee64 57bf 9596 9d33 0c29 a33f
